[INFO: train_w_local_context.py:  123]: Initializing train dataset
[INFO: train_w_local_context.py:  125]: Initializing val dataset
[INFO: train_w_local_context.py:  133]: There are 5.84375 iterations per epoch
9
[INFO: train_w_local_context.py:  160]: Here is the generator:
[INFO: train_w_local_context.py:  161]: TrajectoryGenerator(
  (encoder): Encoder(
    (encoder): LSTM(64, 64)
    (spatial_embedding): Linear(in_features=2, out_features=64, bias=True)
  )
  (decoder): Decoder(
    (decoder): LSTM(64, 128)
    (pool_net): PoolHiddenNet(
      (spatial_embedding): Linear(in_features=2, out_features=64, bias=True)
      (mlp_pre_pool): Sequential(
        (0): Linear(in_features=192, out_features=512, bias=True)
        (1): ReLU()
        (2): Linear(in_features=512, out_features=1024, bias=True)
        (3): ReLU()
      )
    )
    (mlp): Sequential(
      (0): Linear(in_features=1152, out_features=1024, bias=True)
      (1): ReLU()
      (2): Linear(in_features=1024, out_features=128, bias=True)
      (3): ReLU()
    )
    (spatial_embedding): Linear(in_features=2, out_features=64, bias=True)
    (hidden2pos): Linear(in_features=128, out_features=2, bias=True)
  )
  (pool_net): PoolHiddenNet(
    (spatial_embedding): Linear(in_features=2, out_features=64, bias=True)
    (mlp_pre_pool): Sequential(
      (0): Linear(in_features=128, out_features=512, bias=True)
      (1): ReLU()
      (2): Linear(in_features=512, out_features=1024, bias=True)
      (3): ReLU()
    )
  )
  (mlp_decoder_context): Sequential(
    (0): Linear(in_features=1097, out_features=1024, bias=True)
    (1): ReLU()
    (2): Linear(in_features=1024, out_features=128, bias=True)
    (3): ReLU()
  )
)
[INFO: train_w_local_context.py:  176]: Here is the discriminator:
[INFO: train_w_local_context.py:  177]: TrajectoryDiscriminator(
  (encoder): Encoder(
    (encoder): LSTM(64, 64)
    (spatial_embedding): Linear(in_features=2, out_features=64, bias=True)
  )
  (real_classifier): Sequential(
    (0): Linear(in_features=64, out_features=1024, bias=True)
    (1): ReLU()
    (2): Linear(in_features=1024, out_features=1, bias=True)
    (3): ReLU()
  )
)
[INFO: train_w_local_context.py:  196]: Restoring from checkpoint ../checkpoints/checkpoint_with_model.pt
[INFO: train_w_local_context.py:  240]: Starting epoch 27
torch.Size([454, 9])
torch.Size([418, 9])
torch.Size([442, 9])
[INFO: train_w_local_context.py:  285]: t = 101 / 1168
[INFO: train_w_local_context.py:  287]:   [D] D_data_loss: 1.386
…
