…
540250K .......... .......... .......... .......... .......... 99%  103M 0s
540300K .......... .......... .......... .......... .......... 99%  118M 0s
540350K .......... .......... .......... .......... .......... 99% 1.98M 0s
540400K .......... .......... .......... .......... .......... 99% 33.8M 0s
540450K .......... ..                                         100% 90.5M=29s

2019-12-01 01:35:27 (18.2 MB/s) - ‘models/vgg16.pth’ saved [553433881/553433881]

41472
[INFO: train_w_local_context.py:  165]: Here is the generator:
[INFO: train_w_local_context.py:  166]: TrajectoryGenerator(
  (encoder): Encoder(
    (encoder): LSTM(64, 64)
    (spatial_embedding): Linear(in_features=2, out_features=64, bias=True)
  )
  (decoder): Decoder(
    (decoder): LSTM(64, 128)
    (pool_net): PoolHiddenNet(
      (spatial_embedding): Linear(in_features=2, out_features=64, bias=True)
      (mlp_pre_pool): Sequential(
        (0): Linear(in_features=192, out_features=512, bias=True)
        (1): ReLU()
        (2): Linear(in_features=512, out_features=1024, bias=True)
        (3): ReLU()
      )
    )
    (mlp): Sequential(
      (0): Linear(in_features=1152, out_features=1024, bias=True)
      (1): ReLU()
      (2): Linear(in_features=1024, out_features=128, bias=True)
      (3): ReLU()
    )
    (spatial_embedding): Linear(in_features=2, out_features=64, bias=True)
    (hidden2pos): Linear(in_features=128, out_features=2, bias=True)
  )
  (pool_net): PoolHiddenNet(
    (spatial_embedding): Linear(in_features=2, out_features=64, bias=True)
    (mlp_pre_pool): Sequential(
      (0): Linear(in_features=128, out_features=512, bias=True)
      (1): ReLU()
      (2): Linear(in_features=512, out_features=1024, bias=True)
      (3): ReLU()
    )
  )
  (mlp_decoder_context): Sequential(
    (0): Linear(in_features=42560, out_features=1024, bias=True)
    (1): ReLU()
    (2): Linear(in_features=1024, out_features=128, bias=True)
    (3): ReLU()
  )
)
[INFO: train_w_local_context.py:  181]: Here is the discriminator:
[INFO: train_w_local_context.py:  182]: TrajectoryDiscriminator(
  (encoder): Encoder(
    (encoder): LSTM(64, 64)
    (spatial_embedding): Linear(in_features=2, out_features=64, bias=True)
  )
  (real_classifier): Sequential(
    (0): Linear(in_features=64, out_features=1024, bias=True)
    (1): ReLU()
    (2): Linear(in_features=1024, out_features=1, bias=True)
    (3): ReLU()
  )
)
[INFO: train_w_local_context.py:  245]: Starting epoch 1
torch.Size([426, 41472])
torch.Size([416, 41472])
torch.Size([502, 41472])
[INFO: train_w_local_context.py:  290]: t = 1 / 1168
[INFO: train_w_local_context.py:  292]:   [D] D_data_loss: 1.379
[INFO: train_w_local_context.py:  292]:   [D] D_total_loss: 1.379
[INFO: train_w_local_context.py:  295]:   [G] G_discriminator_loss: 0.692
…
