…
540250K .......... .......... .......... .......... .......... 99% 6.88M 0s
540300K .......... .......... .......... .......... .......... 99%  916K 0s
540350K .......... .......... .......... .......... .......... 99% 1023K 0s
540400K .......... .......... .......... .......... .......... 99% 90.8M 0s
540450K .......... ..                                         100%  139M=3m29s

2019-12-01 01:41:01 (2.53 MB/s) - ‘models/vgg16.pth’ saved [553433881/553433881]

[INFO: train_w_local_context.py:  166]: Here is the generator:
[INFO: train_w_local_context.py:  167]: TrajectoryGenerator(
  (encoder): Encoder(
    (encoder): LSTM(64, 64)
    (spatial_embedding): Linear(in_features=2, out_features=64, bias=True)
  )
  (decoder): Decoder(
    (decoder): LSTM(64, 128)
    (pool_net): PoolHiddenNet(
      (spatial_embedding): Linear(in_features=2, out_features=64, bias=True)
      (mlp_pre_pool): Sequential(
        (0): Linear(in_features=192, out_features=512, bias=True)
        (1): ReLU()
        (2): Linear(in_features=512, out_features=1024, bias=True)
        (3): ReLU()
      )
    )
    (mlp): Sequential(
      (0): Linear(in_features=1152, out_features=1024, bias=True)
      (1): ReLU()
      (2): Linear(in_features=1024, out_features=128, bias=True)
      (3): ReLU()
    )
    (spatial_embedding): Linear(in_features=2, out_features=64, bias=True)
    (hidden2pos): Linear(in_features=128, out_features=2, bias=True)
  )
  (pool_net): PoolHiddenNet(
    (spatial_embedding): Linear(in_features=2, out_features=64, bias=True)
    (mlp_pre_pool): Sequential(
      (0): Linear(in_features=128, out_features=512, bias=True)
      (1): ReLU()
      (2): Linear(in_features=512, out_features=1024, bias=True)
      (3): ReLU()
    )
  )
  (mlp_decoder_context): Sequential(
    (0): Linear(in_features=1178, out_features=1024, bias=True)
    (1): ReLU()
    (2): Linear(in_features=1024, out_features=128, bias=True)
    (3): ReLU()
  )
)
[INFO: train_w_local_context.py:  182]: Here is the discriminator:
[INFO: train_w_local_context.py:  183]: TrajectoryDiscriminator(
  (encoder): Encoder(
    (encoder): LSTM(64, 64)
    (spatial_embedding): Linear(in_features=2, out_features=64, bias=True)
  )
  (real_classifier): Sequential(
    (0): Linear(in_features=64, out_features=1024, bias=True)
    (1): ReLU()
    (2): Linear(in_features=1024, out_features=1, bias=True)
    (3): ReLU()
  )
)
[INFO: train_w_local_context.py:  246]: Starting epoch 1
[INFO: train_w_local_context.py:  291]: t = 1 / 1168
[INFO: train_w_local_context.py:  293]:   [D] D_data_loss: 1.390
[INFO: train_w_local_context.py:  293]:   [D] D_total_loss: 1.390
[INFO: train_w_local_context.py:  296]:   [G] G_discriminator_loss: 0.693
[INFO: train_w_local_context.py:  296]:   [G] G_l2_loss_rel: 38.893
…
