4_small_vgg
[INFO: train_w_local_context.py:  126]: Initializing train dataset
[INFO: train_w_local_context.py:  128]: Initializing val dataset
[INFO: train_w_local_context.py:  136]: There are 11.6875 iterations per epoch
[INFO: train_w_local_context.py:  166]: Here is the generator:
[INFO: train_w_local_context.py:  167]: TrajectoryGenerator(
  (encoder): Encoder(
    (encoder): LSTM(64, 64)
    (spatial_embedding): Linear(in_features=2, out_features=64, bias=True)
  )
  (decoder): Decoder(
    (decoder): LSTM(64, 128)
    (pool_net): PoolHiddenNet(
      (spatial_embedding): Linear(in_features=2, out_features=64, bias=True)
      (mlp_pre_pool): Sequential(
        (0): Linear(in_features=192, out_features=512, bias=True)
        (1): ReLU()
        (2): Linear(in_features=512, out_features=1024, bias=True)
        (3): ReLU()
      )
    )
    (mlp): Sequential(
      (0): Linear(in_features=1152, out_features=1024, bias=True)
      (1): ReLU()
      (2): Linear(in_features=1024, out_features=128, bias=True)
      (3): ReLU()
    )
    (spatial_embedding): Linear(in_features=2, out_features=64, bias=True)
    (hidden2pos): Linear(in_features=128, out_features=2, bias=True)
  )
  (pool_net): PoolHiddenNet(
    (spatial_embedding): Linear(in_features=2, out_features=64, bias=True)
    (mlp_pre_pool): Sequential(
      (0): Linear(in_features=128, out_features=512, bias=True)
      (1): ReLU()
      (2): Linear(in_features=512, out_features=1024, bias=True)
      (3): ReLU()
    )
  )
  (mlp_decoder_context): Sequential(
    (0): Linear(in_features=1178, out_features=1024, bias=True)
    (1): ReLU()
    (2): Linear(in_features=1024, out_features=128, bias=True)
    (3): ReLU()
  )
)
[INFO: train_w_local_context.py:  182]: Here is the discriminator:
[INFO: train_w_local_context.py:  183]: TrajectoryDiscriminator(
  (encoder): Encoder(
    (encoder): LSTM(64, 64)
    (spatial_embedding): Linear(in_features=2, out_features=64, bias=True)
  )
  (real_classifier): Sequential(
    (0): Linear(in_features=64, out_features=1024, bias=True)
    (1): ReLU()
    (2): Linear(in_features=1024, out_features=1, bias=True)
    (3): ReLU()
  )
)
[INFO: train_w_local_context.py:  202]: Restoring from checkpoint ../checkpoints/checkpoint_with_model.pt
[INFO: train_w_local_context.py:  246]: Starting epoch 129
[INFO: train_w_local_context.py:  291]: t = 501 / 2337
[INFO: train_w_local_context.py:  293]:   [D] D_data_loss: 1.431
[INFO: train_w_local_context.py:  293]:   [D] D_total_loss: 1.431
…
